Sem 5/EL-AIML-LAB/LFCC_LCNN/checkpoints/best_model.pth (torch, 947573 bytes, 46 tensors)

network.0.weight f4 [64, 1, 5, 5]
00000000: 53e1 1d3e a33f 363e 8971 26bc 7c5a 553e
00000010: f714 87bc 1a59 353d d5e2 a2bd b369 df3d
00000020: d720 313e 1f3d 0cbe a35b 273e 1668 023d
00000030: fb76 1c3e 26a7 503d f115 e83d fa84 08bd
00000040: af2d 013e 871d da3c e939 92bd b8f4 213d
00000050: 58d2 07be b676 6fbd 15af 11be 8b78 9a3d
00000060: 3bd1 40be 5ea7 74bd 6e5d dcbc a373 b7bd
00000070: 93c2 6e3d 42d2 1cbe fa9f 333e bb0e 2dbe
00000080: faa0 203e 84a5 b13c aca7 90bd 2224 0f3e
00000090: 78e5 113d 017d 213e 7040 e83c 0d96 64bd
000000a0: 6d2f 993d c174 dabc 82f2 d13d 44d1 3a3e
000000b0: 02c4 fd3d a678 72bd 538b 003e ada2 353d
000000c0: eaf3 013e df73 d8bd 937e 25be 92ba dbbc
000000d0: 7fd8 f3bd 6d8b 403e d521 9e3d 4f7f ce3d
000000e0: d5d2 b03d dbcf 3b3c 97de 363e 8491 e7bd
000000f0: 24ca 623c 4736 00be 6a35 923d 38e7 84bd
00000100: b3be 6f3d c9dc b0bd 819d ed3d 9797 14be
00000110: cf3b 04be 9575 1fbe 9f42 383e a9bf 833d
00000120: 6469 3e3e 1ffe 11be 59a2 3abe 0858 2bbe
00000130: 6368 26be 14f3 643d 8444 8e3d a233 1a3e
00000140: 3b4f dcbd 55bc 0abe c16d 013e 773c 6abd
00000150: 5334 ff3d 64bb cebc 0c23 173e bb15 17be
00000160: cce0 b8bd 851e bc3d 4dcc e43c c394 a6bd
00000170: ca00 f93d d6ca 0f3e 89c9 33be 4f66 a6bd
00000180: 4220 6d3e a259 27bd 8733 92bd c758 33be
00000190: 8d8a f2bd 6967 0d3d 557b cebc 2140 09be
000001a0: c8c0 3a3c b7aa 11be 595a 2cbe 1688 e7bd
000001b0: 2693 37be 41cd 00be 16b3 3e3e 4603 193d
000001c0: f8e7 ac3d 8e0f 25be d442 cbbd 74c9 babd
000001d0: 84a2 903b 0c81 38be bca8 cbbd 4fd4 11be
000001e0: 49e3 533c b92b 4bbd fd4f f43b 9d07 febd
000001f0: 023e fbbd f040 dfbd eaf8 85bd 9931 1cbe
00000200: 2ff4 353e 3168 f1bc 85f7 313e c12a 043d
00000210: 324d 58be 4fb7 013e d13b 56bd c5fd 93bd
00000220: 68e1 2dbe abf0 4cbe a028 6a3d 645b 0cbd
00000230: 444a a23d f04c 13be dfed 333e 452f f8bd
00000240: a10c 8bbc 537e 363d dd01 e23d d0de 473e
00000250: a6cf 493e a398 1dbe fc5d 8f3d ca13 94bd
00000260: a68a 48bd feca 12be 4b8f 4e3e 537a 15be
00000270: 69a6 053e 00a8 bd3d ce98 823d b90b 00be
00000280: 3af9 173e dc6d fd3c 0ab0 2dbd 2cac 68be
00000290: 318d 613d a666 86bd 626d ffbd c8b0 403e
000002a0: 2c13 903d 97f3 05be a87f bbbd 5688 913c
000002b0: 3db3 253e b778 87bc 3e1a debd 4e17 1fbd
000002c0: a628 ecbd b5f7 f63d eb7c 483e 3ad1 1ebe
000002d0: 72ca 303d a700 ef3d dbc7 fbba 0f9d fbbd
000002e0: c3ea 973d b835 de3d 0376 a13d 8db5 69bd
000002f0: 470b 90bd 91b2 043d 8431 84bd 0c1b d3bd
00000300: 9069 f73d 1507 333e 9064 69bd 0893 ffbc
00000310: 51c5 3f3b b6a8 9dbc 6d43 373d 0670 383d
00000320: 0808 30be f4b4 63bd 9b4c 2e3e fba4 b83d
00000330: 5a54 113d a457 f3bd 3119 f8bd 6b57 34be
00000340: 9d68 84bd a47c 903d 2d4f fc3d ed68 913d
00000350: 4384 0cbe 8f16 a3bd 8094 58bc c824 833e
00000360: d86e b63d 0092 b33c 336d 113e c5c3 523c
00000370: b7ae 00be 4e2f fe3d fb69 e7bd 4714 44bd
00000380: d3fd 3abe 5c7e e33d 1948 113e de1f 7a3d
00000390: de2e 2dbe ce41 68be cd52 13be 3e5a 273e
000003a0: 8ee7 fd3d 9623 4b3e 0cb9 e83d 3e4c bc3d
000003b0: 35a0 073d 7ea1 00be ab1f 10be 767e 26be
000003c0: f72a ca3d a12c b3bd 8cef 0cbd 13af c7bd
000003d0: fe4d 9bbc e2fe f9bd 66f1 f3bd 24a9 a53d
000003e0: 2aa0 0bbd f160 083e 1f3b 7fbd 2fa8 11be
000003f0: 175d c0bc 2627 adbd 7e67 45bd 68a7 40be
0.15417986 0.17797713 -0.010158905 0.20835298 -0.016489489 0.044274427 -0.07953421 0.109088324
0.17297684 -0.13695191 0.1634355 0.031837545 0.15279762 0.050940655 0.1133231 -0.03332994
0.12615083 0.026625408 -0.07139952 0.039540023 -0.13263834 -0.05846282 -0.14226945 0.07542523
-0.18829815 -0.059729926 -0.02690002 -0.08957603 0.05829103 -0.15314582 0.17541495 -0.1690015
0.15686408 0.02168537 -0.07063231 0.13978627 0.03561923 0.15770341 0.028351039 -0.055807162
0.07479749 -0.026667 0.10251333 0.18243891 0.12390901 -0.05919709 0.12553148 0.044344593
0.12690702 -0.10568976 -0.16161565 -0.026822362 -0.11906528 0.18803187 0.07721297 0.10082876
0.08633963 0.011463131 0.17858349 -0.11307052 0.013842139 -0.12520705 0.07139094 -0.06489414
0.058531474 -0.086358614 0.11602307 -0.14510952 -0.1291344 -0.15572198 0.17994164 0.06433041
0.18594891 -0.14257096 -0.18225993 -0.167328 -0.16250758 0.05589588 0.06946662 0.15058759
-0.107572995 -0.13548405 0.12639524 -0.05718657 0.12461152 -0.02523584 0.14759463 -0.14754383
-0.090272516 0.09185509 0.02792945 -0.08133843 0.121583536 0.1404222 -0.17557348 -0.081249826
0.23156837 -0.040856965 -0.07138734 -0.17514335 -0.11842833 0.034522448 -0.025205294 -0.1340337
0.011398502 -0.14225279 -0.1683134 -0.11305253 -0.17927226 -0.12578298 0.18623003 0.037356637
0.08442682 -0.16119215 -0.09924856 -0.091204554 0.0044139046 -0.18017977 -0.09944293 -0.14241146
0.012932607 -0.049602244 0.0074558244 -0.12403796 -0.122676864 -0.10901058 -0.06541617 -0.15253295
0.1776893 -0.029468628 0.17379577 0.032267336 -0.21123198 0.12667583 -0.05230314 -0.07226137
-0.16980517 -0.20013683 0.05716765 -0.034266844 0.07924321 -0.14384818 0.1757121 -0.12118391
-0.016973795 0.044554066 0.11035512 0.1951859 0.19708118 -0.15390258 0.07000348 -0.07230337
-0.04896035 -0.14335248 0.2017185 -0.14597444 0.13051762 0.09260559 0.063768014 -0.12504472
0.14841166 0.030936174 -0.042404212 -0.22721928 0.05506629 -0.065625474 -0.12472035 0.18817437
0.07034907 -0.13081203 -0.09155208 0.017765205 0.16181655 -0.016537054 -0.10844849 -0.038840584
-0.115311906 0.12058965 0.19578902 -0.15509501 0.043161817 0.11670046 -0.0019209342 -0.12285816
0.07417824 0.1085009 0.07883837 -0.057057906 -0.07033401 0.032396857 -0.06454757 -0.10307893
0.12080681 0.1748317 -0.05698067 -0.03119804 0.0029261897 -0.019245487 0.044742037 0.04502871
-0.17190564 -0.055592492 0.1702141 0.090158425 0.035480835 -0.118819505 -0.1211418 -0.17611472
-0.06465266 0.07055023 0.12319789 0.07100091 -0.13722329 -0.07963287 -0.013218999 0.25614
0.089078605 0.021920204 0.14201812 0.012864058 -0.12566648 0.124113664 -0.11299511 -0.0478709
-0.18260889 0.111080855 0.1418766 0.061065547 -0.1691241 -0.22681352 -0.14387055 0.16343018
0.12397681 0.19837794 0.1136342 0.091942295 0.03311177 -0.12561604 -0.1407458 -0.16259179
0.09871476 -0.08748747 -0.034408137 -0.0975019 -0.018958088 -0.12206818 -0.119112775 0.08088902
-0.03408829 0.1331823 -0.06231224 -0.14224313 -0.023481889 -0.084547326 -0.0481944 -0.1881386

network.0.bias f4 [64]
00000000: 3522 bbbd fa4e 063e a5b3 e1bd f31a 7fbd
00000010: cd90 1cbd f010 1a3e 94f4 21be 1ca2 123d
00000020: 4bdc 04bd 7f54 423d eef0 08bd a047 ce3d
00000030: d342 07bd 338e 1cbe 7387 413e 7c20 8dbd
00000040: f65b c8bd 31ab 53bd 8596 4d3e c356 fcbd
00000050: f883 05be 1b90 07be 2660 4f3e b9a1 033e
00000060: 85a6 153e 7b60 01be 01e2 ec3c 2e12 90be
00000070: 7515 b13c 962a 863e e65b 123e 3e74 17be
00000080: 9095 6dbd 2099 0e3d c616 60be 5499 1ebe
00000090: 2bb8 59be c6e2 91bc ce62 c33d dc8a 03bd
000000a0: 7d4c 563d 0d16 12bc 8951 a4bd 1661 b8bd
000000b0: d1fd 0cbe 2d24 29be cd7a 0a3e ae0d 7bbe
000000c0: af63 d63d ae59 e0bd 4439 3a3d 22be 013c
000000d0: 4a49 6d3d bacd d4bd c4cb 14be 41bc 10be
000000e0: f579 893d 1657 35be 4d24 173d ad42 01ba
000000f0: 8a7d 9d3d 7040 33be 3fb6 113e 8e83 2dbd
-0.09137384 0.13116065 -0.110205926 -0.06228156 -0.03822403 0.15045524 -0.15815955 0.03579913
-0.03243665 0.047443863 -0.033432893 0.10072255 -0.033022713 -0.1528862 0.18899326 -0.068909615
-0.09783165 -0.051676933 0.2007695 -0.12321236 -0.13038623 -0.13238566 0.20251521 0.12854661
0.14614303 -0.1263446 0.02891636 -0.2813887 0.021616677 0.26204365 0.14292869 -0.14790437
-0.058003962 0.034814 -0.21883687 -0.15488178 -0.21261661 -0.01780833 0.0954033 -0.03211485
0.05231904 -0.00891639 -0.08023364 -0.09002893 -0.13768698 -0.16517706 0.13523407 -0.24516937
0.10468232 -0.10954605 0.04546477 0.007918866 0.057931222 -0.10390802 -0.14530855 -0.14134313
0.067127146 -0.17709002 0.036899853 -0.0004930895 0.0768996 -0.1750505 0.14229678 -0.04236179

network.3.weight f4 [64, 32, 1, 1]
00000000: c2ca 3dbe d974 ec3c d1f7 fbbd 9832 fb3d
00000010: 6aac a03a 1afb 51bd a585 dfbd b0d1 2c3d
00000020: 0f21 2abe e1d7 b83d 7ae4 a13d 6da6 e93d
00000030: 31b6 313d 69fd 22be 7d63 133e b18f babd
00000040: c9d1 5fbd 5408 34bd 60e8 063e 9f5c dc3d
00000050: 128a d63b 253c 253d 2fdd 47be 7689 47bc
00000060: 0766 17be 4e93 f73c 1b89 12be 81de b0bd
00000070: 761a f13d 8ef1 483e 755e 03be c20f fbbd
00000080: 4d60 bfbc aa9a 883d 8a39 46bd 47a2 9cbd
00000090: 47ed cabd 3597 ad3d f75e 153e fb9f babd
000000a0: c8f6 ad3d a6a0 943d 263c 273d 0c4b c9bb
000000b0: fbbf 88bc 5170 fa3d 0e32 cf3d 8e9f 213e
000000c0: d570 41bd 76e1 8c3c d0ff 893d 592c 30be
000000d0: 4f13 043d f9d5 5dbd f801 f23d 8692 babd
000000e0: 098c 8b3b 4091 c63d ecc7 41be 1ce7 0fbe
000000f0: 889b 05be ccb3 433d 7da7 ef3d a0f6 e8bd
00000100: 8a25 ad3c 6443 e4bd 905e f5bd 55bd e43d
00000110: dac4 cf3d a710 56bd d8d3 69bb 8cc8 45bc
00000120: 18cf 033d 0ed3 04be 03b6 00be 7449 0c3e
00000130: aa76 e13b 2b88 2e3d bb65 d7bd dbae 473d
00000140: b219 d13d 8f59 9c3d 7ecf c9bb e76f 223e
00000150: ab36 ed3b 7a7d ad3c 0218 233e a84e 133e
00000160: b1d4 b3bd d476 1f3e 803b 6a3c 31ce 99bc
00000170: 33a7 f63d 7aaf 08be e45a 093e 4a03 2a3e
00000180: 9230 e8bd 8548 95bd 7d45 24be e186 65bd
00000190: 9ebe 12be 5152 0bbd cd66 943d 9a29 e63d
000001a0: e202 f33d 55f1 bf3d 2fe5 ca3d 8392 92bd
000001b0: 711b 01be ef8a a83c 4a45 3c3e 6a21 463c
000001c0: 4a26 1dbb e8da eabd 77a0 96bd b9a6 edbd
000001d0: b335 433e 922a 50bc 1906 2ebe f749 de3c
000001e0: e6ae 463d 4f0f 9439 8544 5f3d c01f 023e
000001f0: 566d 1bbe a3ef f2bd 6d66 643b 707a 15be
00000200: 0f94 2bbe 41db 1d3e 5a40 f5bb 2cf5 b9bd
00000210: 909d 60bd 354b febd e004 d13d a591 17bd
00000220: c870 c1bd 55e9 fcbd 7a5a d63d 5b24 9dbc
00000230: 142b b9bc 2e47 eebc 674d 92bd ebd6 0f3d
00000240: 33e2 f93d 7760 b1bd 05d1 2e3c f184 febd
00000250: 60e8 a2bd 3ad2 153e e17b 02bc 7d3d 343e
00000260: 4d28 bbbc 2ded a0bd 6ffc 00be 841d 063e
00000270: 6faf 04be ca11 a63d c0de 013d 33a7 593d
00000280: 481c bc3d 7e16 20bd 753a dd3d 5c8d e3bd
00000290: 00df 8bbd f72d 103e dde4 b23d 5d0a a73c
000002a0: 83ee fabc eb58 bcbd caa0 533d e61c 493a
000002b0: b363 4737 9116 443d 4b18 1b3e 9325 8abd
000002c0: a3ea 72bd d001 203e 9032 e23d 8944 edbd
000002d0: 24e5 26be 8e48 8f3d ad90 df3d 8884 2c3c
000002e0: a193 103e bb80 19be a68a 0d3e 06d0 00be
000002f0: 2c50 c93d 9ed5 363e 2dcb dd3c 4a45 143e
00000300: ec62 f4bd b37d 1dbe c573 18be bab1 113e
00000310: f763 823d 54a0 05be eb97 c23d c891 413e
00000320: 7965 2cbe f576 133e f4a7 db3c 172c 753c
00000330: e986 293e 2662 343e 2835 b33d 8c51 0b3e
00000340: 65b2 8a3d c070 5c3d a3ae 0cbe b6b7 a53c
00000350: 1c65 05be 3a31 583d b48a 093d 368f bb3b
00000360: 2277 e1bd e2af dbbd fdd6 253e 540f 7f3d
00000370: 3653 ea3d f4e4 fdbc 0686 18bd 51a8 31bd
00000380: a416 f83d d5e8 8abd 407e e53d d67c 053e
00000390: f993 38be 167a 86bc bf4f 12bd 4b4e c5bd
000003a0: 2666 c33d 9093 33bc 9176 083e 2634 0abe
000003b0: baa3 ad3d 04c4 02be b7ce c7bd ec80 043d
000003c0: 5c2e 1b3e 76ab c33d 4ffb 21be 0601 483c
000003d0: a0db e3bd b5ae b23c c1b9 28be 3f23 64bd
000003e0: 71b7 283e 73e3 40be e416 23be 483f 343a
000003f0: d475 bc3c 2094 35bc 9a4a 1a3e a2c9 93bd
-0.18534377 0.028864311 -0.123031266 0.12265509 0.0012258415 -0.05126486 -0.109141625 0.04219216
-0.16614173 0.09025551 0.079049066 0.11408696 0.043386642 -0.15916981 0.1439342 -0.09109438
-0.054643426 -0.043953255 0.13174582 0.107598536 0.006547221 0.04034056 -0.19517969 -0.012178769
-0.14785014 0.030221608 -0.14310114 -0.08636189 0.11772625 0.19623396 -0.12829001 -0.12258865
-0.02336135 0.06670125 -0.048394717 -0.076481394 -0.09908538 0.08476106 0.14587007 -0.09112545
0.084943354 0.07257204 0.040828846 -0.0061429795 -0.016693106 0.12228454 0.10116969 0.15783522
-0.047226746 0.017197352 0.067382455 -0.17204417 0.032244977 -0.05415914 0.11816782 -0.091099784
0.004258637 0.09695673 -0.1892392 -0.14053005 -0.13047612 0.04777889 0.11701868 -0.11375165
0.021136064 -0.11145666 -0.11980927 0.11168925 0.10144968 -0.052261975 -0.0035679247 -0.01207174
0.032179922 -0.12971136 -0.12569432 0.13699895 0.006880601 0.04261033 -0.105174504 0.04875074
0.10209979 0.076342694 -0.006158768 0.15863 0.007239183 0.021177996 0.15927127 0.14385474
-0.08780802 0.15572673 0.0142964125 -0.018775078 0.120436095 -0.13348189 0.13413578 0.16602817
-0.11337389 -0.07289223 -0.16042133 -0.056036834 -0.14330527 -0.03401405 0.0724617 0.112384036
0.11865784 0.09372202 0.099069946 -0.07156851 -0.12608124 0.020574061 0.18385807 0.0120929275
-0.002397912 -0.11467534 -0.07354825 -0.116040654 0.19063453 -0.012705462 -0.16994514 0.027134879
0.04850664 0.00028240166 0.054508705 0.12707424 -0.15178427 -0.11862113 0.003485109 -0.14597487
-0.16755699 0.1541567 -0.007484478 -0.09079966 -0.054837763 -0.12416688 0.10206008 -0.03700413
-0.094453394 -0.12349192 0.10466476 -0.019182375 -0.022603549 -0.029086675 -0.071436696 0.03511707
0.12201347 -0.08660977 0.010669951 -0.124277 -0.07954478 0.14630976 -0.007964105 0.17601581
-0.022846365 -0.07857738 -0.12596296 0.13097197 -0.12957548 0.08108862 0.03170657 0.05313797
0.09185082 -0.03908395 0.108021654 -0.111109465 -0.06829643 0.14080034 0.087350585 0.020390684
-0.03063131 -0.09196647 0.051667012 0.00076718477 1.1884537e-05 0.047873084 0.15145986 -0.06745448
-0.0593058 0.15625691 0.110448 -0.11585338 -0.16298348 0.069962606 0.109162666 0.010529645
0.14118816 -0.14990513 0.13822421 -0.12579355 0.09829745 0.17854926 0.02707442 0.14479557
-0.1193293 -0.15379982 -0.14887913 0.14227954 0.06366723 -0.13049442 0.09501632 0.18903267
-0.16835584 0.14400847 0.026813485 0.014964125 0.1655537 0.17615566 0.08750373 0.13605326
0.06772307 0.053818464 -0.13738494 0.020229202 -0.13026851 0.05278132 0.033579543 0.005723859
-0.11009051 -0.10726906 0.16195293 0.062270477 0.114416525 -0.030992962 -0.03723719 -0.04337341
0.12113693 -0.067826904 0.11205721 0.13035902 -0.18025197 -0.016415637 -0.035720583 -0.09634074
0.09540968 -0.010960475 0.1332648 -0.13496456 0.08478494 -0.12770087 -0.097562246 0.032349512
0.15154403 0.09554188 -0.15818523 0.012207275 -0.111258745 0.021811822 -0.1647711 -0.055697676
0.16476227 -0.18836765 -0.15926701 0.0006875885 0.023005404 -0.011082679 0.1506752 -0.07216193

network.3.bias f4 [64]
00000000: 5d1d 0b3d 40be 293d 4de1 763c 3338 e7bd
00000010: 4cce 12bd 0663 de3b d362 acbd f734 3e3e
00000020: 181c 093e ff01 bfbc 074d 5d3e fc14 c73d
00000030: 95b4 a7bd 159a fc3d ca57 453c 5758 c23d
00000040: 858d 86bd f8f5 763e e80b 7c3e 4f64 3cbd
00000050: 4e13 15be 1899 a6bd b06d ad3a 3e31 573d
00000060: 55c4 19bd 5c74 53bd b0a8 073e d46d 22bd
00000070: 3d5c 09bd bdf1 04be d6ca 3f3d 88b1 2ebd
00000080: 2a4b d8bd 3078 f8b9 8b3c f83b 7504 193e
00000090: cd96 923d 9c65 f33d d239 423e de7a 63be
000000a0: f883 2abe 0b8d 06be 7cb6 34be 5e79 5f3d
000000b0: b8a7 63bd 6466 d9bd c486 46bc 157f b03d
000000c0: 6bcf d1bd f35a 83be 0126 7dbd 099a 063d
000000d0: dc46 013e 8443 4f3d 67e6 6aba c62e 1dbe
000000e0: b64c 843e 5868 97bd dc2f 05be 3b56 273e
000000f0: fe13 39bd 5b39 cc3d 1b76 e4bd 77a9 1f3d
0.03396355 0.041441202 0.015068364 -0.11290016 -0.03584127 0.006786707 -0.08417287 0.18574892
0.13389623 -0.023316381 0.21611415 0.09720799 -0.0818874 0.12334076 0.012044856 0.09489506
-0.065699615 0.24117267 0.24613917 -0.0459941 -0.14558145 -0.08134669 0.0013231542 0.052537195
-0.037540752 -0.05162464 0.13247943 -0.03965552 -0.03353523 -0.12982841 0.0468243 -0.042649776
-0.105612114 -0.00047391793 0.0075755767 0.14943106 0.07157669 0.11884615 0.18967369 -0.22214839
-0.16651905 -0.13139741 -0.17647737 0.054559104 -0.05557987 -0.106152326 -0.012117092 0.08617989
-0.1024464 -0.25655326 -0.06180382 0.032861743 0.12624687 0.050601497 -0.0008960724 -0.15349874
0.25839776 -0.07392949 -0.13006538 0.16341488 -0.04518508 0.09971877 -0.11155339 0.038979974

network.5.weight f4 [32]
00000000: 864e 833f e1ef 5f3f 0eb0 6a3f 743d 7b3f
00000010: 595a 783f dc38 7d3f 5880 823f 33c4 883f
00000020: fec6 773f a885 753f 16ad 7a3f 9f3a 813f
00000030: 2ef6 833f b8ea 723f eff0 6d3f 048c 6e3f
00000040: f24a 6f3f 9790 683f 20ed 793f 6a78 693f
00000050: 0d72 7e3f 68a7 813f a02d 843f 7e60 713f
00000060: 7259 743f 2caa 763f d8ca 863f 647b 713f
00000070: 2d93 6d3f 50c5 6b3f 4c7e 803f 0d43 663f
1.0258338 0.874754 0.9167489 0.98140645 0.9701286 0.98914886 1.0195417 1.0684875
0.96788013 0.9590707 0.9792036 1.0096015 1.0309503 0.948894 0.9294576 0.93182397
0.9347373 0.90845627 0.9762745 0.9119936 0.9939278 1.0129213 1.0326424 0.9428786
0.9544898 0.9635341 1.0530653 0.94328904 0.928027 0.9209795 1.0038543 0.8994606

network.5.bias f4 [32]
00000000: ec19 99bc 296d 9d3c d4d0 e73b 6be7 773c
00000010: bc09 b6bc 6c4c 96bc 3fef 5cbc 7b8d 35bd
00000020: 44bd 5e3c 7788 1fbc a4cf 82bc fa74 2ebd
00000030: 9bc4 ebbc 0cd1 69bc 6275 983c 85a6 db39
00000040: 7e82 9bba d9be 48bc a3a5 8c3a 75fc 0c3c
00000050: 838d 863d df54 65bc 6ec9 1ebd d687 6cbc
00000060: fd51 9cbb 53e3 b7bb 95d7 863b f7f3 7cbc
00000070: d409 d13b e0e6 423c 6ff1 b8bc 75e1 df38
-0.018689118 0.01921709 0.007074455 0.015130858 -0.022221439 -0.018346988 -0.013484775 -0.04432438
0.013594929 -0.009737126 -0.015968151 -0.042592026 -0.028780272 -0.014271032 0.01861066 0.00041895002
-0.0011864451 -0.012252533 0.0010730516 0.008605112 0.0656996 -0.013997286 -0.038766317 -0.014436683
-0.004770516 -0.005611816 0.004115055 -0.015439025 0.0063793454 0.011895865 -0.022576062 0.00010675463

network.5.running_mean f4 [32]
00000000: 91aa 75be d2b8 3a41 4505 1e41 2058 b3bd
00000010: 5394 8540 bc55 4340 8e07 a13f ea76 3d3e
00000020: ff1d 46bf 383e 773f 1002 ef3e 2701 bb3f
00000030: 59ff 9d3f 7c8c 5640 4df2 2741 8cdc e040
00000040: a4f8 3a40 9d6e 7940 8695 bf3f d019 76c0
00000050: 8bbe c3bd 4aff 8c3f 29be 57bf 38e3 2ac0
00000060: a605 913f 05b7 05c0 0adc 0240 2306 3140
00000070: e6ee 1740 73cd bc40 18f6 19be f4b0 03c1
-0.23990847 11.670122 9.8762865 -0.08757043 4.174356 3.0521078 1.258043 0.18502393
-0.7738952 0.96579313 0.4668126 1.4609727 1.2343551 3.3523245 10.496655 7.026922
2.9214258 3.8973763 1.4967506 -3.8453255 -0.095578276 1.1015408 -0.84274536 -2.6701183
1.1329849 -2.0892956 2.04468 2.7659996 2.3739562 5.9000793 -0.15035284 -8.230701

network.5.running_var f4 [32]
00000000: e347 4741 b94c 9444 059f 1d44 71ec 0a42
00000010: 7e19 2c43 a85e 6242 ca80 4641 a59d 5141
00000020: be49 0b42 68c7 9641 25c0 7841 7227 4a41
00000030: 60e1 b841 24a3 f642 a2d2 2a44 fc3a f343
00000040: 5eb8 5642 e74c cd42 4c69 f241 c881 2143
00000050: de5b 1041 370a 9641 75bb 9141 d2f1 2842
00000060: 899a 2f42 4d2d a542 32bc bd41 775b c041
00000070: 83bc 4642 2dfa 8043 ca1b eb41 a9ab 2544
12.45505 1186.3976 630.4847 34.7309 172.09958 56.592438 12.406443 13.100987
34.822014 18.847366 15.54691 12.63463 23.110046 123.318634 683.29114 486.46082
53.680046 102.6502 30.301414 161.50696 9.0224285 18.754988 18.216532 42.236153
43.900913 82.58848 23.716892 24.04466 49.684093 257.9545 29.388569 662.6822

network.6.weight f4 [96, 32, 3, 3]
00000000: aadd c73d 93f3 e93c 883a 983d 3f40 21bd
00000010: 17ff ff3c ad22 203d 77e9 873d 3c58 90bd
00000020: c5e4 e23d 00c5 dbbc fd34 33bd 7d7d edba
00000030: 2f6a 41bd 9612 8abd ad56 263c 4a63 fe3b
00000040: 10e0 d93b f082 8dbc 750a 39bd ca82 56bd
00000050: db80 533d 2b6d 79bd 43cd 403c 595f 173d
00000060: 80cb 1a3d 9309 2fbd 2ba9 ebbc b12d a7bd
00000070: 9cb4 4a3c df12 94bd 90f2 9abc 843c 8abc
00000080: afb9 bb3d b87c 663d 90af c73c 1b16 443d
00000090: 667f 1dbd ec87 2bbd edf6 3fbd d578 30ba
000000a0: e92b 193c e47f 9abb f1aa 70bd c21c 17bc
000000b0: 3e12 4cbd e391 1ebc 323e 4fbc 7d21 3ebc
000000c0: b9c5 32bd 0c2f a03d 0389 a93b d093 5b3d
000000d0: 66ba 083d 16db 6a3c a526 203d abc4 933c
000000e0: f9ec 2f3d 4af4 673b 7e59 493d 5e18 19bd
000000f0: 35d9 22bd 8bbd 6f3d 4f2d b83c c812 b4bc
00000100: df7d 98bd daeb 843b 31ab bb3d a491 043d
00000110: 9f3d 583d 7cfe a33d bd72 c2bc 8f69 773c
00000120: 6f43 033c b69c cdbb 145d 813d 0771 863d
00000130: 902a b23c cd28 423d 921b 07bd 1328 c13c
00000140: 35bd e93b fcbb 64bd 65f6 86bc e685 88bb
00000150: b11d 46bd 9cee 353d df23 0b3d 20dd 913d
00000160: d3a8 a8bc 49a8 7bbc bd06 113d aeea bf3c
00000170: fc78 fabc 2a2b 403c f9d3 eebc f36b 38bc
00000180: aeac f8bc 04d1 933d 6c50 fabc 47e8 37bd
00000190: 7406 42bc d8c8 0b3d 77e4 0d3d 6da4 38bd
000001a0: c236 833d 1790 2dbd b85a 073b 9c66 2e3d
000001b0: 7e0f 403d aa39 ebbc 2cb7 39bd bb3b b0bc
000001c0: 75fb a13c 48d3 72bd c722 d8bc 6c71 31bd
000001d0: d6aa 5d3c 6474 cd3b b159 7e3c 9177 c4bc
000001e0: dc76 85bd 66fa 24bd d5ae 6fbd df17 09bd
000001f0: c97d 353c 7b7c 82bd 2b42 c8bb 2e0e 6fbd
00000200: ba50 32bd 7d23 24bd b14e afbc 726a e1bc
00000210: 9d31 143c b9a2 073d 2fe2 e93c 0d1c f53b
00000220: 2bb7 11bc fc8f 9ebc ea3f f13c b0b2 4cbd
00000230: d4e7 fe3c 5994 a4bd 3c93 8fbd 3b31 6abc
00000240: 122a 23bd a3fa 14bc 9418 1d3d 62e3 753d
00000250: 8b8c 833d e107 e1bb 8634 e6bc 143b 33bc
00000260: 2817 e2bc 0f02 0cbd 050e eebb c060 573d
00000270: 14c5 bdbc f705 e13c 1d18 013d 7044 143d
00000280: d4ba 5e3c ce61 ffbc 30d2 643d 23c9 65bb
00000290: 9ba4 8fbc 0fe5 c53c bb01 6d3d 1aff 44bd
000002a0: 9415 f73d 926a 163b 3f1a 2a3d 4d5e 593d
000002b0: d698 41bc e1b0 29bc 817f 413d cd2d bcbc
000002c0: fd65 ccbb 7fa8 23bd e18e 813d 75af cd3c
000002d0: 2cde dd3c 8398 893c 276a d13c 13a1 23bd
000002e0: a6df c0bc ffcd 8ebd e631 c33c 72bc 5d3c
000002f0: 7382 bbbc 34f2 ff3c 0e9e 24bc 02b0 6a3c
00000300: 352f f2bc 306f 003d bca8 9e3c 5774 d33c
00000310: 55c5 2cbd 5633 30bd ac18 96bd 7824 983c
00000320: 2bf2 d53c bc31 b63c 4a9c b83c e886 de3c
00000330: 5828 6c3d ffd0 ed3b 3b41 833c eb38 463d
00000340: 2e94 01bc b9cd 253d 6797 2d3c b155 f7bc
00000350: a413 a1bc 2c18 cebc 7ee3 80bb c521 ab3d
00000360: 2296 933d b0ea b63c 1979 0e3d 760c 4bbd
00000370: e739 7fbb 1a1e 16bd 2b2c c7ba d6ff 20bd
00000380: 01bf b73d 3c85 723b d825 49bd ca46 113b
00000390: 071b 8abd abdd 20bb b1d8 0a3d ce70 94bc
000003a0: 44d9 5bbc 347c 84bd a2a7 cbbc aa14 ea3c
000003b0: 97a6 35bd 0d37 3f3b e77b 923d e4ba 303d
000003c0: ef70 163d 6a06 b0bd 3af5 bf3c 010b 1cbc
000003d0: 085b 3e3c 0414 303d e6ee f9bc 3057 5f3d
000003e0: 1476 f3bc 0122 4f3d e15d 9a3c 63c7 e93c
000003f0: cdc7 79bc 04de b23c ef68 b6bc 6f68 7e3c
0.09759076 0.028558528 0.07433039 -0.03936791 0.031249566 0.03909557 0.06636327 -0.07048079
0.110787906 -0.026827335 -0.043751705 -0.0018119063 -0.047220405 -0.06741826 0.010152501 0.007763301
0.006649025 -0.01727435 -0.04517599 -0.052370824 0.051636558 -0.060895126 0.011767688 0.036956165
0.03779173 -0.04273374 -0.028767189 -0.08163012 0.012372162 -0.07230162 -0.018914491 -0.01687456
0.09166276 0.056271285 0.024375707 0.047872644 -0.038451575 -0.041877672 -0.046866346 -0.00067318726
0.009348848 -0.004714953 -0.058756772 -0.009223165 -0.049822085 -0.009678337 -0.012649106 -0.011604664
-0.043645594 0.078214735 0.005173804 0.05360776 0.03338089 0.014334461 0.039099354 0.018038115
0.042950604 0.003539341 0.049157612 -0.037376754 -0.039757926 0.05853037 0.022482542 -0.021981612
-0.07445883 0.004056436 0.091635115 0.032365456 0.05279314 0.080075234 -0.023736352 0.015100851
0.008011683 -0.006274785 0.06316581 0.06564527 0.021748811 0.047402192 -0.032985277 0.02357868
0.007133151 -0.05584334 -0.016474912 -0.0041663526 -0.04836816 0.04441701 0.033969756 0.07122254
-0.020588314 -0.0153599465 0.035406817 0.023427334 -0.030575268 0.011729041 -0.02915381 -0.011256206
-0.030355778 0.07217601 -0.030555926 -0.04489925 -0.011842359 0.034127086 0.03464171 -0.045078684
0.064069286 -0.042373743 0.0020653438 0.042578325 0.046889775 -0.02871402 -0.045340702 -0.021512857
0.019773224 -0.059283525 -0.02638377 -0.04332106 0.0135295 0.0062699784 0.015524314 -0.023982795
-0.06516811 -0.04027786 -0.058516342 -0.03347003 0.011077353 -0.06371399 -0.0061114035 -0.058363132
-0.043534018 -0.040072907 -0.021399828 -0.027516577 0.009045032 0.03311417 0.028550236 0.0074801506
-0.008893768 -0.019355766 0.029449422 -0.049975097 0.031116404 -0.080361076 -0.070105046 -0.014293964
-0.039835043 -0.00909296 0.038353518 0.060031302 0.06423291 -0.0068673943 -0.028101217 -0.010939378
-0.027598932 -0.03418165 -0.007264855 0.052582502 -0.023165263 0.027468665 0.031517137 0.03619808
0.013594348 -0.031174567 0.055864513 -0.0035062514 -0.017534545 0.024157075 0.05786298 -0.048094846
0.120646626 0.0022951704 0.041528936 0.053068448 -0.011816224 -0.010357113 0.047240738 -0.022971058
-0.006237744 -0.039955612 0.0632608 0.025108078 0.027083479 0.016796356 0.025563313 -0.039948534
-0.023544144 -0.069728844 0.023827504 0.013533698 -0.022889351 0.031243421 -0.010047449 0.01432419
-0.029563526 0.031356037 0.019367568 0.025812311 -0.042180378 -0.043017708 -0.073289245 0.018572077
0.026116451 0.022240512 0.022535462 0.027163938 0.057655662 0.0072575803 0.016022315 0.048394125
-0.007908864 0.040479396 0.010595179 -0.030192228 -0.019662686 -0.02515801 -0.003933369 0.083560504
0.0720637 0.022328705 0.034783456 -0.04957243 -0.0038944425 -0.0366498 -0.0015195658 -0.039306484
0.08971978 0.0037005683 -0.049108356 0.0022167438 -0.06743436 -0.0024546187 0.03389806 -0.018120196
-0.013418499 -0.06469002 -0.024860207 0.028574307 -0.044348326 0.00291771 0.07152539 0.043146983
0.036728796 -0.085949734 0.023432363 -0.009524108 0.011618383 0.04298784 -0.030509423 0.054526508
-0.02971939 0.050569538 0.018843593 0.028537458 -0.01524539 0.02183438 -0.022266833 0.015527829

network.6.bias f4 [96]
00000000: df3e 5f3c 14ff e4bc 0976 8d3d 424d 243c
00000010: eae4 65bd b1b7 203d d0ef b63c b26e 023d
00000020: 1499 4bbd 6c3f 37bd 7d43 683d 9ef2 643d
00000030: b4d8 b13c bfd6 4fbc daef 1a3d 9316 663c
00000040: d8d7 f63c e5a8 98bd 93b2 43bd b9d3 fdba
00000050: b5e9 b3bc db48 c8bc ea8d 91bc c8a8 25bc
00000060: 2cca 96bd 4d5e 043c fa89 f7bc 5fb3 97bc
00000070: 21e5 0a3d 2093 4bbb ddad 09bd 7345 32bd
00000080: 498b 12bd eca0 543d 3e74 4037 0f2e d73a
00000090: 9e4c 47bd efa5 12ba 22c2 6b3d 4874 053d
000000a0: 4e2e 6dbd 0762 dcbc 8d07 f6bc 44dc ac3c
000000b0: 4ed2 8c3c 82c3 cf3b 490b ae3d 6a64 57bd
000000c0: d2b7 813c c209 f63c 5bf2 6abd 29fd 24bd
000000d0: f012 743d 8a6d cc3c 4c57 cd3c ec03 d1bc
000000e0: dfe2 a6bc dcee 21bd 8ce3 eebb d555 14bd
000000f0: b67a 2c3d 7ed7 a7bb c72d 1b3d 9b61 ca3c
00000100: d7cf 103d 17f7 263d 0e20 9d3b 7741 61ba
00000110: 5a1c dabc befa 24bc f8b9 23bc e095 9c3d
00000120: 1624 bc3c b8a5 9a3b 8de4 493b c25a 36bd
00000130: a861 283d 860e 463c cc21 b9bc 373c 19bd
00000140: da9f 7c3c b7f8 a7bd 7ff6 a5bb c0ca c53c
00000150: 77b4 853d 755e a6bd 2628 5fbd 47cc 2d3b
00000160: eab6 24bb 3b4c 89bb 44ec 80bc e163 16bd
00000170: babb 433d d8dc c1b9 d7a1 9dbd c461 433d
0.0136258295 -0.027953662 0.06907279 0.010028185 -0.056126513 0.03923768 0.022331148 0.03184385
-0.049706534 -0.04473822 0.056704987 0.05589544 0.021709777 -0.012685477 0.037826397 0.014043468
0.03013222 -0.07454089 -0.047777724 -0.0019365466 -0.021962026 -0.024448803 -0.017767865 -0.010111041
-0.0736278 0.008079124 -0.03021716 -0.018518148 0.03390992 -0.0031063035 -0.033613075 -0.043523263
-0.035777364 0.05191128 1.14711565e-05 0.0016416925 -0.048657052 -0.0005594184 0.057558186 0.032581598
-0.057905488 -0.026902212 -0.030032897 0.021101125 0.017190125 0.006340445 0.08498246 -0.052585997
0.015834723 0.03003395 -0.057360034 -0.040280495 0.059588373 0.024954576 0.02506604 -0.025514565
-0.020371852 -0.039534435 -0.0072903093 -0.03621467 0.042109214 -0.005122124 0.037885454 0.024704745
0.03535446 0.040762987 0.004795081 -0.0008592824 -0.026624847 -0.010069547 -0.009993069 0.07645774
0.022966426 0.0047194622 0.0030806393 -0.044520147 0.041108757 0.012088424 -0.022599123 -0.03741094
0.015418971 -0.082017355 -0.005064785 0.02414453 0.065285616 -0.08123485 -0.054481648 0.0026519464
-0.002513344 -0.0041899956 -0.01573766 -0.036716346 0.047786452 -0.0003697637 -0.07696884 0.04770066

network.9.weight f4 [48]
00000000: ea8c 7b3f b10f 763f 27c5 7a3f f63e 763f
00000010: 9f60 7d3f 116b 7b3f 74a4 723f f08a 7c3f
00000020: fe02 743f 0494 7a3f 50a1 7b3f 0245 713f
00000030: 35ea 7a3f a64a 743f eab8 763f 25a0 793f
00000040: a9bd 7b3f 931b 7b3f be26 793f 4973 803f
00000050: 6e76 753f 434d 753f 93b7 793f 8521 7b3f
00000060: 91d7 793f b47e 803f 068d 753f 0a81 763f
00000070: 605f 7a3f eb8c 703f 0986 813f 375c 7a3f
00000080: 7afa 7f3f ebe7 7f3f 67ae 803f 80a7 783f
00000090: 23e5 773f c1d0 7a3f 5f26 733f 180f 7f3f
000000a0: b03c 743f 0f4c 823f dc39 783f 1159 793f
000000b0: 37a6 7b3f 0659 7e3f baf6 763f 5529 793f
0.9826189 0.96117693 0.9795708 0.9618982 0.9897556 0.98210245 0.94782186 0.986495
0.95317066 0.97882104 0.9829302 0.9424592 0.9801362 0.95426404 0.96375906 0.97509986
0.98336273 0.9808895 0.9732474 1.0035182 0.95883834 0.9582102 0.9754574 0.9809802
0.97594553 1.0038667 0.9591831 0.9629065 0.9780178 0.93965024 1.0119029 0.9779696
0.9999157 0.99963254 1.0053223 0.97130585 0.9683401 0.97974783 0.94980425 0.99632406
0.954051 1.0179461 0.96963286 0.9740153 0.983005 0.9935459 0.96470225 0.9732869

network.9.bias f4 [48]
00000000: 721f f3bc 7b37 bcbc e3fd 923b 5cd5 f3bc
00000010: c1d9 15bd 19df 17bd f2d5 e2bb 5354 c6ba
00000020: a7f8 bf3c 0ae5 a1bc 6760 4e3c 3f3b 14bd
00000030: e8a5 6dbc 8cc2 b43b e292 86bc f258 943c
00000040: 8776 3dbc e32e c53c 691c 37bc 7bf3 843b
00000050: bc0a 48bc 0205 1c3a 1f7a febb 8bb6 0ebd
00000060: 6827 c739 1f5d c7bc 7bf8 01bd fc3b d0bb
00000070: 6eb4 46bb c764 9cbb d9e7 6c3a fcb0 44bb
00000080: 333d 1ebd 4498 49bc a64a 8fbc 69ae 2fbc
00000090: dd04 333b 809b b43c 4aa8 57bc 86ad d1ba
000000a0: 0892 0ebd 968b 073c 5a1b 0fbd 61b3 b439
000000b0: 35ad 533c b984 b43b c38f e5bc 79dd 243c
-0.02967808 -0.022975674 0.004485832 -0.029764824 -0.03658462 -0.037077997 -0.006922477 -0.0015131332
0.023433996 -0.019762535 0.012596226 -0.036189314 -0.014504887 0.005516356 -0.016427461 0.018108819
-0.011563904 0.024070209 -0.011176207 0.0040573454 -0.0122095905 0.0005951674 -0.007766023 -0.034842055
0.00037985598 -0.024336396 -0.03173111 -0.006354807 -0.0030319947 -0.004772756 0.00090372335 -0.0030012717
-0.038632583 -0.012304369 -0.01749165 -0.010722735 0.002731613 0.022046804 -0.013162682 -0.0015997149
-0.034807235 0.008273026 -0.034938194 0.00034465923 0.012919714 0.005508986 -0.028022652 0.010062569

network.9.running_mean f4 [48]
00000000: 1978 583f a566 5e3f f352 713f a6fb 813f
00000010: b8f8 573f d04e 553f 0096 383f 1744 5f3f
00000020: 1c3a 6d3f e808 623f d7bd 673f a877 993f
00000030: d7bc 3d3f b5fc 843f f834 9e3f ced4 7d3f
00000040: c513 863f 1043 603f 3ec3 7a3f a9ea 2d3f
00000050: 6602 343f e23f 563f 39da 903f 6808 9c3f
00000060: 15be 2e3f 3539 863f 04fe 0a3f adce 233f
00000070: 1f5a 763f 71fd 4f3f 8097 5e3f 7502 303f
00000080: 4abc 923f c9d7 9f3f 8e6f 873f 611f 7d3f
00000090: 6cad 833f 4895 623f fa52 773f 4940 5c3f
000000a0: 590f 8e3f 5416 243f 4ddb 683f ed9c 313f
000000b0: 48d3 303f 4f88 443f 4996 353f 95c3 5a3f
0.84558254 0.86875373 0.94267195 1.0154922 0.8436389 0.83323383 0.7210388 0.8721327
0.9266679 0.8829484 0.9052405 1.1989641 0.7411627 1.038962 1.2359915 0.9915284
1.0474783 0.8760233 0.97954166 0.6793619 0.7031616 0.8369123 1.1316596 1.2190065
0.6825879 1.0486208 0.5429385 0.6398724 0.96231264 0.81246096 0.8694992 0.6875375
1.1463711 1.2487727 1.0580919 0.98876005 1.0287299 0.88509035 0.9661099 0.8603559
1.1098434 0.6409657 0.90959626 0.69380075 0.6907239 0.7677049 0.7093244 0.85454684

network.9.running_var f4 [48]
00000000: 7463 cf3f 465e c03f 65bf 503f 8f77 2a40
00000010: b1ae ab3f b3db 8e3f 73a1 0c40 c7e0 a03f
00000020: 1eba 833f b105 933f a530 3140 9188 613f
00000030: 6333 203f c63c 3040 fbc2 3340 a08e 9040
00000040: faf4 2d40 868c 153f fa65 3840 7bf2 043f
00000050: 889a 9c3f dcdd 713f 1698 823f a6da 863f
00000060: 380b ce3f 81ca cd3e d206 8d3f 6e06 a73f
00000070: 8ad7 0c3f 1541 7c3f b872 e73e fe1d 333f
00000080: 70f0 9b3f a4b5 2b3f 1d86 1f3f f101 3c3f
00000090: 5f45 df3f 5226 0140 40c8 cf3e 8fa6 e23f
000000a0: 42c9 bb3f 3e48 c43e a7d7 893f 4369 9a3f
000000b0: 9281 a83f 9c63 d33f 043b 2340 bbc9 f73f
1.6202226 1.502877 0.81542045 2.6635473 1.3412687 1.1160797 2.197354 1.2568597
1.0291173 1.1486112 2.768594 0.8809901 0.6257841 2.7537093 2.8087757 4.5174103
2.7180772 0.58417547 2.8812242 0.51932496 1.2234659 0.94479156 1.0202663 1.0535476
1.6097174 0.4019356 1.1017706 1.3048837 0.55016387 0.9853681 0.4520471 0.6996764
1.2182751 0.67074037 0.62314016 0.7344046 1.7443045 2.017964 0.40582466 1.770708
1.4670794 0.38336366 1.0768937 1.2063373 1.3164542 1.6514773 2.550477 1.9358438

network.10.weight f4 [96, 48, 1, 1]
00000000: edc3 47bd c4b2 d4bd 4607 f13d 7342 6fbd
00000010: 4408 dfbd a225 e13c 6864 bebc eb77 023e
00000020: bdc6 c73d 020d ffbc 4870 02bc 7b29 ad3d
00000030: 64b1 a53d 2602 9ebd d4d0 713d 5e5f 133d
00000040: cfd1 0c3e fb5e b6bd ae07 f8bd 1737 1fbd
00000050: 0015 f3bd 39a1 37bd 0abe bb3d 135a babd
00000060: 1122 023e 1634 823d 3870 df3d dddf cebd
00000070: 8931 9e3d c392 d43d 893e b83d 6373 cabd
00000080: 3c60 ca3d 96cc 673d 352d 2a3d 0479 c43d
00000090: 72b4 22bc 22a8 73bd 776a abbd 84dd f6bd
000000a0: 20ea 33bd 99c8 1a3d f991 973d 37c9 933d
000000b0: 030c bd3d bcba a4bb b5fc 50bd 4537 833d
000000c0: 2c88 06bd f49f 0e3d fbca 983d 7d25 c3bd
000000d0: f318 eebd 3364 26be 3ceb 043d 70f9 a6bd
000000e0: 77ce 65bd ba9f 193d 1187 073d 020d 0cbe
000000f0: c946 6dbd 4a45 21bd 2786 09bd 2e2e 35be
00000100: d1ae 94bd 62a9 80bd 84a4 e83b 86bc e23d
00000110: 2d60 a3bd fca6 a3bc c0c1 a33d 9edb 1ebd
00000120: c8c2 763d 522b ed3d c201 7dbd f3c3 7fbd
00000130: 4c6a 443d 8aef 1a3d 0d69 0cbe 42d0 10be
00000140: 53e2 8dbb 1e05 c8bb fed5 8b3d fe06 dfbd
00000150: 286b 2d3b 1d43 113c eedd 843d 4d90 05be
00000160: 477d c6bc 25b6 1dbe 1219 f43c b0b4 17be
00000170: 0535 d9bd 499a e13d e93e 9fbd 1e51 333d
00000180: 148e 6a3d 5959 4e3d 77c1 0abe f0d7 b4bd
00000190: 9bbc 01be b237 85bd e67b 663c 0e82 dcbd
000001a0: d15d 4b3d 1f9a 3bbe 6ffe 17be 7e65 abbd
000001b0: 6145 24bd 940f fe3d 4086 153e 6ab5 1dbe
000001c0: 4642 36bd 2ab7 cc3d 8f43 3bbd f272 c4bd
000001d0: aa01 0f3d 0ced 163e e9a1 d9bd 8a1d 2a3d
000001e0: f3ba 09bb 5df9 1cbd a4e3 e1bd e893 1fbd
000001f0: 8073 023e 160e e43a 0846 0ebe 4358 e53d
00000200: 8004 67bd 5402 3bbd 0a83 0d3e 953c 04be
00000210: ca82 d0bd 9e9f 69bd d231 b63c cc49 993d
00000220: 0162 13be 021e 473d 56de 843d 3b2e a3bd
00000230: 65d7 31be 720d c13d c4dc d53b c429 e1bc
00000240: 5c42 fb3d d2dd 053e c6d1 4b3d a12a cfbc
00000250: c197 a93c 9684 0ebd d59e d53d a9ef a03d
00000260: ec4f d03d c12b 093e be5c c23d eae8 553d
00000270: ec3a 31be d650 123d 41f2 25bd 5edd 28bd
00000280: bc22 e23c b228 863c e80a a9bd a501 8fbc
00000290: 8fb0 a63d 1782 d83c c3ed 213d d41b c93d
000002a0: 8b3c 233d bd7f ae3c 05a0 b23d 05c7 173d
000002b0: 1ace 8d3d 823d 16bd 527f 31be 3c69 34bd
000002c0: 75cb c9bc e4a6 be3d 8c37 2e3d eeb3 d33b
000002d0: 6a81 20bd a7e0 c2bc 7703 8c3c 4747 f73d
000002e0: c4fa 933c 2d96 de3c 0ecf bebc a1ff ba3c
000002f0: a5fc 0ebe c22c dc3c 71cd fe3c de8e d53b
00000300: 6f97 db3d 67fb a43d 9612 e3bb ae19 7a3d
00000310: e002 eabd af8d f13c f71c 523c adff 8e3d
00000320: 6315 c93b bdbd b2bc 9104 bcbd 029d 23bd
00000330: a96b 8f3c f567 23be a17e a53c 883f f23d
00000340: 38a1 62bd 13cd 0e3d 844c fc3c fea8 0ebd
00000350: b12b 6f3d 9e26 c63c fabb dd3d 9b99 66bd
00000360: 6ace c83d 40db 05be 9e56 cdbc 3eb8 75bd
00000370: ae79 8dbc 7506 1dbb 24c8 463e e77b 3fbd
00000380: f2f1 a83d 1004 b33d 064e f13d 0dc9 4b3c
00000390: 44d5 52bb 0b98 e4bd 7a25 46bd a54c 51bd
000003a0: 0b51 ce3d 87f0 b13d a652 dfbb 1072 bdb9
000003b0: 9efc 5d3d d5af 053e ca19 e5bd e7c5 5b3d
000003c0: e40c 3ebc 47c0 ecbd faaa b53d 790c 883c
000003d0: af15 d2bc 5811 233d 21f8 a5bd 6ed6 eabd
000003e0: 9d36 29be be6d 6fbd d686 a8bd 681b a4bd
000003f0: 6ee3 08be 370d cc3c 2129 73bd d2b4 20be
-0.048770834 -0.10385659 0.117689654 -0.05841298 -0.108902484 0.027483765 -0.023241237 0.12741058
0.09754703 -0.031134132 -0.00796134 0.084551774 0.08090475 -0.077152535 0.059037045 0.03597962
0.1375191 -0.08904835 -0.1211084 -0.038870897 -0.1186924 -0.04483149 0.091671064 -0.090992115
0.12708308 0.06357591 0.10910076 -0.10101292 0.07724292 0.10379555 0.08996303 -0.098852895
0.098816365 0.056591593 0.04154702 0.095933944 -0.009930717 -0.059486516 -0.08369916 -0.120539695
-0.04392445 0.03778896 0.07400889 0.07216113 0.09230807 -0.0050271433 -0.05102225 0.06407026
-0.032844707 0.034820512 0.074605905 -0.09528635 -0.116258524 -0.1624916 0.0324509 -0.08153045
-0.056105103 0.037505843 0.033087794 -0.13676837 -0.057928834 -0.03937272 -0.033575203 -0.17693397
-0.07259906 -0.06282307 0.00709969 0.11071114 -0.079773284 -0.019977085 0.07995939 -0.038783662
0.06024435 0.11580528 -0.061769255 -0.06244273 0.047952935 0.0378261 -0.13711949 -0.14141944
-0.0043299585 -0.0061041256 0.06827925 -0.108900055 0.0026461575 0.008866099 0.06487642 -0.13043328
-0.024229659 -0.15401514 0.02979711 -0.1481502 -0.10605816 0.11015756 -0.07775671 0.04377853
0.057264403 0.050378177 -0.13550363 -0.08830249 -0.12669604 -0.06504764 0.014067626 -0.107669935
0.049650017 -0.18320511 -0.14843152 -0.083689675 -0.040105227 0.12405315 0.14601994 -0.15401235
-0.044496797 0.09995873 -0.045718726 -0.095922366 0.034913696 0.14738864 -0.10626585 0.041532077
-0.0021015971 -0.03832375 -0.11029747 -0.038959414 0.12739372 0.0017399217 -0.13893902 0.11198475
-0.056400776 -0.045656517 0.13819519 -0.12913735 -0.10181196 -0.05703699 0.022240553 0.07484779
-0.14392854 0.048612602 0.0648772 -0.07967802 -0.17367323 0.094263926 0.0065265615 -0.027485736
0.122685164 0.13072899 0.049760602 -0.025288882 0.020702245 -0.034794413 0.104306854 0.078582115
0.10171494 0.13395597 0.094903454 0.052224077 -0.17307633 0.035721622 -0.040514234 -0.041226737
0.027604453 0.016376827 -0.08254033 -0.017456839 0.08139145 0.02642922 0.039533388 0.09819761
0.03985266 0.021301145 0.087219276 0.037055034 0.069240764 -0.036679752 -0.17333725 -0.04404567
-0.024633149 0.093091756 0.042533442 0.0064606583 -0.03918592 -0.023788763 0.017091496 0.12074142
0.01806391 0.027171219 -0.02329209 0.022826971 -0.13963564 0.026876811 0.031103821 0.0065172752
0.10722243 0.08055764 -0.006929706 0.061059646 -0.114263296 0.029486505 0.012824289 0.0698236
0.0061365827 -0.02181899 -0.091805585 -0.039944656 0.017507391 -0.15957625 0.020201983 0.11828524
-0.05532953 0.034863543 0.030798204 -0.034829132 0.058391277 0.024188336 0.10826869 -0.056298833
0.09804995 -0.13071918 -0.025065716 -0.05999016 -0.017269935 -0.0023960148 0.19412285 -0.04674902
0.082492724 0.08741009 0.1178246 0.012438071 -0.0032170573 -0.111618124 -0.048375584 -0.051098485
0.100740515 0.08688455 -0.0068152724 -0.00036133872 0.054195993 0.13055356 -0.111865595 0.05365553
-0.011599753 -0.115601115 0.08870502 0.01660751 -0.025645105 0.039811462 -0.081039675 -0.114666805
-0.1652474 -0.058454268 -0.08228843 -0.0801304 -0.13368008 0.024908645 -0.059365395 -0.15693977

network.10.bias f4 [96]
00000000: df02 8a3d bff6 57bd d8e4 40bd 8f59 523d
00000010: 8dee b53d 5b13 2dbd d134 c83d 25e2 d1bc
00000020: a30b 67bd e89a 2dbd 7821 4e3b 0121 963c
00000030: e543 8d3d 6571 6f3d 2676 9bbd 1991 853d
00000040: 9d85 1c3a cf54 b0bc 0e30 4bbc e52a 823d
00000050: 7a8c 3fbd b6b1 423e 03ba 533d 8e84 d73d
00000060: b5a9 8dbc 24a5 c1bd 7cbe ba3b c3ca a9bd
00000070: e126 273b 89fa dc3d f86d c4bc fcfc c83d
00000080: 62a8 d8bd f704 68bc 3065 c33d 6c45 9a3c
00000090: 2dac 7c3d 4bd1 aebd b749 c5bb d608 51bd
000000a0: 9f7a b3bd 2b57 ddbb fc26 b1bd ca1b 2abc
000000b0: 5d04 b0bd 486e 99bc e431 04bd d40a 1f3d
000000c0: da4a d5bc cb21 ca3c 1ab4 eabc 104e f1bd
000000d0: a624 473d 27a5 f9bd 5067 f73d b0ad c7bd
000000e0: 9ea4 903d d6e2 ebbc b529 943b 44bd 21be
000000f0: 8d93 16be 5b0d fa3d eaf4 9ebc 3840 0fbe
00000100: 29bf 0ebe 5da7 52bd 306f 35bd 859e 3e3c
00000110: 02ee cdbb 1ced babd 73ba 09be f43b debd
00000120: 4fa4 283d 1c00 0b3c 83d1 dcbc f799 f7bd
00000130: b4e9 98bd df65 27bd 0c40 913d 1509 f13d
00000140: 1c09 f7bd 236c 64bc c0c9 35bd a952 413d
00000150: a6a1 abbc bc35 383c ce4e ccbd 7591 c0bd
00000160: 19b8 243e 7ad4 3bbc 2bd0 0a3e 8d70 0bbe
00000170: 74a9 163d 18d3 d6bd 761a b53d 1282 a9bd
0.06738829 -0.05272555 -0.047093242 0.05135494 0.088833906 -0.042254787 0.09775699 -0.02562053
-0.056407582 -0.04238406 0.0031453054 0.018326284 0.068977155 0.05845775 -0.075908944 0.06521816
0.00059708377 -0.021524815 -0.012401594 0.06355838 -0.04676483 0.19013104 0.051691066 0.1052333
-0.017292837 -0.09455326 0.005698977 -0.08290627 0.0025505351 0.10789973 -0.023978218 0.09813878
-0.105789915 -0.01416134 0.09540784 0.018831931 0.061687637 -0.08536013 -0.0060207504 -0.051033817
-0.087636225 -0.006754776 -0.08650014 -0.010382602 -0.08594582 -0.018729344 -0.032274142 0.038828686
-0.026036669 0.024674317 -0.028650332 -0.11782467 0.048618935 -0.121897034 0.12080252 -0.09749925
0.07062648 -0.028794687 0.0045215734 -0.15794855 -0.14704724 0.122095786 -0.019403894 -0.13989341
-0.1394011 -0.05142914 -0.04429549 0.011634474 -0.0062844763 -0.09127256 -0.13450031 -0.10851279
0.041172322 0.008483913 -0.026955372 -0.12089913 -0.0746645 -0.040868636 0.07092294 0.117693104
-0.12062284 -0.013941797 -0.044381857 0.04719797 -0.020951103 0.01124328 -0.09975968 -0.09402744
0.16085853 -0.011464233 0.13555972 -0.13617153 0.036782697 -0.10489482 0.08842938 -0.08276762

network.12.weight f4 [48]
00000000: 2787 753f 79ec 713f a0e2 803f ec20 653f
00000010: 43e1 7b3f 3b72 643f 8492 563f 5822 7b3f
00000020: 7b70 803f b0a8 6b3f 3d65 6c3f c56f 7b3f
00000030: 4393 7b3f 8457 6e3f 8de9 7d3f 8e28 803f
00000040: d8c4 753f e7f7 783f c323 783f 4dbc 6c3f
00000050: 0b13 6e3f d197 733f e13e 7f3f 9818 773f
00000060: cc5d 793f e77f 693f 9246 753f da31 743f
00000070: f5b8 6f3f 1d05 7c3f aedc 793f c403 643f
00000080: 7fca 7d3f 9202 7a3f 7701 813f 90e7 7e3f
00000090: a8cd 5f3f 7de0 753f d3b1 7e3f 8830 7e3f
000000a0: 58eb 783f acec 823f b03b 813f 83e0 5c3f
000000b0: f70a 823f 06e4 753f b16d 703f c9b6 6c3f
0.9590935 0.94501454 1.006916 0.8950336 0.983906 0.892368 0.83817315 0.9809928
1.0034326 0.9205427 0.9234198 0.9821742 0.9827158 0.9310229 0.99184495 1.0012376
0.96003485 0.9725327 0.9692957 0.92474824 0.9299781 0.9515353 0.9970532 0.965219
0.9740875 0.9121079 0.95810807 0.9538857 0.936416 0.984453 0.97602355 0.89068246
0.9913711 0.9766017 1.0078572 0.99572086 0.8742318 0.96045667 0.9949009 0.992928
0.97234106 1.0228477 1.009634 0.8628008 1.0159596 0.9605106 0.93917376 0.9246641

network.12.bias f4 [48]
00000000: 5ce0 983c 0bdf 48bc bd45 d13b dffc 953c
00000010: bfc1 adbb 6f94 e2bb 4743 013d 9052 513c
00000020: 8e5f 073b 7363 893c f64f b0bc a8b6 eb3a
00000030: d357 85bc 6666 a23c 15d3 5fbc 8160 85bc
00000040: b456 0b3c 71cb b5bc 79ac 99bc 49fe c43c
00000050: b2eb 8a3c 156f 8abc 59e0 fa3c 3d9b dfbb
00000060: 13d6 cf3c cc56 6c3c e8f5 483c 399d 8c3c
00000070: ed64 6a3c 1871 3abc 3eab 2a3c 267c 053d
00000080: bec3 c6bb 4cfd d1bb 4076 303c 7977 513c
00000090: 0553 a63c 3261 873b 7e43 a23c 16a0 7b3c
000000a0: ae1e 2c3c 19c0 aabb 419b a83c cfc5 bd3c
000000b0: bbda a83c 8b8c 9c3c ee61 b53c c405 2e3c
0.01866167 -0.012260209 0.0063864873 0.018309055 -0.0053026373 -0.0069146673 0.0315583 0.012776032
0.002065632 0.016771054 -0.021522503 0.0017983513 -0.01627723 0.019824218 -0.013661166 -0.016281368
0.008504558 -0.022191735 -0.018759 0.024047034 0.016958091 -0.016898671 0.030624555 -0.0068239258
0.025370633 0.014424991 0.01226566 0.017164813 0.014306289 -0.011379503 0.010416804 0.0325891
-0.0060658148 -0.006408369 0.0107703805 0.012784832 0.020303259 0.0041314596 0.019807573 0.015357992
0.0105053615 -0.005210888 0.020581843 0.023165612 0.020612111 0.019109985 0.022141423 0.010621492

network.12.running_mean f4 [48]
00000000: 26cb d43e 686f b33e c302 8b3e 2b6c 4f3e
00000010: d6c6 b63e 0c6f a03e 33bd b23e 2bd9 9c3e
00000020: 4ff9 3a3e 73bd 393e 58d6 e03e 5e6a 8e3e
00000030: 93ec 653e d49a aa3e 825f 263e ebe6 693e
00000040: 50d1 133e 08c6 803e 61d2 813e 914d c53e
00000050: 377b 063e 0cd5 9b3e 6ab2 c93e 0b9a 9b3e
00000060: e2dd 4d3e 7e38 013f 5cfa 133f 1a40 ad3d
00000070: 4b7e b23e baf9 8f3e b626 ba3e 5e15 193f
00000080: 1c59 ae3e 14cb 973e 07fc 803e fb7a 793e
00000090: 68fc bf3e 3716 843e e4aa dd3e 25a9 873e
000000a0: 1fdb e23e 77d7 543e 67e9 273f aaab 0f3e
000000b0: 51fd 323f ab11 0c3e 613c 883e 3558 5a3e
0.4156124 0.35045934 0.27150545 0.20256107 0.35698575 0.31334722 0.34909973 0.30634436
0.18259166 0.18138675 0.4391353 0.27815527 0.22453527 0.3332125 0.16247371 0.22841994
0.14435315 0.25151086 0.2535582 0.3853574 0.1313294 0.3043598 0.39393932 0.30390963
0.20104173 0.50476825 0.57803893 0.08459492 0.3486198 0.28120214 0.3635766 0.5979823
0.3405236 0.29647124 0.25192282 0.2436332 0.37497258 0.257982 0.43294442 0.26496235
0.443078 0.20785318 0.6559052 0.14030328 0.6991778 0.13678615 0.26608565 0.21322711

network.12.running_var f4 [48]
00000000: 2cb4 413e c1fa f83d adf0 2a3e 2965 1a3f
00000010: 9767 4c3e cd6b 8b3e 747d 263f 5c26 fc3d
00000020: ce95 273e 6931 4b3e e57d 853e 29c9 3c3e
00000030: 083b cb3d bc44 9c3e 61ab ff3d ebb3 ef3d
00000040: 291e 083e b734 963e d22f 2f3e 2204 073e
00000050: f53f 203e b850 3d3e e2df 103e 0270 593e
00000060: 0f5a 0b3e 72cb 263f 2448 793e bc9c fd3d
00000070: 26f9 623e 795b 853e 3395 4d3e da56 493f
00000080: 93b9 3e3e 4066 013e 2caa c43d 7763 273e
00000090: 4d0b fd3e b6ad c73d b185 513e 06a9 2f3e
000000a0: 4cf9 573e 73f7 1a3e 572e 323e 8203 b23e
000000b0: a832 763e ff50 223e 7070 6c3e 89cc ff3d
0.18916386 0.121572025 0.16693373 0.6031061 0.19961391 0.27230683 0.65035176 0.12312004
0.1636574 0.19843067 0.26072612 0.18436112 0.09923369 0.3052119 0.1248386 0.117042385
0.13292755 0.29337093 0.17108086 0.1318517 0.15649398 0.18487823 0.14147905 0.21234134
0.13608573 0.6515418 0.24343926 0.1238341 0.22165355 0.2604635 0.20076446 0.7864815
0.18625478 0.12636662 0.0960277 0.16346537 0.49422684 0.097499296 0.20461155 0.17154321
0.21091193 0.15133457 0.1740049 0.347683 0.24042761 0.1585121 0.23089767 0.12490184
